DRL_in_Action/GridWorldModel.pth (torch, 104223 bytes, 6 tensors)

weight f4 [150, 64]
0.2230185 -0.16204174 -0.121760175 -0.017030468 -0.06751562 -0.13671762 0.35705277 -0.1137509
-0.14041954 0.32968128 0.10070189 -0.20704868 -0.009212176 0.24691111 -0.13171966 -0.20414944
-0.026038604 0.07659238 -0.091705315 -0.11901674 -0.016334293 -0.27011317 -0.12439281 0.34262648
-0.0133369835 -0.4057443 0.26378947 -0.3233164 -0.23801918 0.18789494 0.29148647 -0.1522296
0.024358954 -0.057079155 -0.016265765 -0.022616459 -0.055182446 0.09687844 0.030380348 -0.0869969
0.0090609 -0.09002733 0.084525734 -0.29850143 0.08425286 -0.12699139 -0.011122144 -0.13402373
-0.07898017 0.022340639 -0.10725433 0.091649234 0.07781974 0.03463387 0.044111684 -0.15083596
0.21558347 -0.044710957 -0.21831852 0.16630964 -0.13780661 0.04662724 0.12943286 0.04064722
0.09343958 -0.35201198 -0.046749044 -0.29664427 -0.049534358 0.10354493 0.36490074 -0.0784873
0.11256663 0.22518519 0.14547561 -0.2655642 0.06092253 0.10382294 -0.13009559 0.09056183
0.26064157 0.22918282 -0.13804673 -0.134128 -0.15781896 -0.12803039 0.0053943293 0.33577803
-0.2542954 -0.3679327 -0.3936007 0.39919752 -0.045493875 -0.2880497 -0.14943156 0.18164144
-0.08811419 -0.20117816 -0.046689052 0.13822663 0.19113685 0.045360312 0.06084023 -0.13509515
0.06478024 -0.026743686 0.08150652 -0.059229117 -0.00983901 -0.11386557 0.22181901 -0.09817971
-0.100437224 -0.060291585 -0.094843864 0.12328969 -0.05800538 -0.14867222 0.06548569 0.13636093
0.019676983 0.023102015 0.075851664 0.07343253 -0.14608799 0.18868612 0.2332772 -0.13986349
0.093920894 0.09033818 -0.11165578 -0.5049944 0.4065036 -0.0005345978 -0.34797597 -0.15400906
0.13563046 0.49880353 -0.07553642 -0.5285599 0.46727774 0.34854716 0.30748078 -0.036751274
0.024084197 0.010996479 0.41574478 0.24655643 0.10620302 -0.11489947 0.12017306 0.5833501
-0.5732002 -0.17990962 0.49299422 0.13870825 -0.35912144 -0.5302703 0.005430804 0.427657
-0.007297354 0.04478026 -0.06013988 0.014808199 -0.07202239 0.29903534 0.24270473 -0.15981711
0.4632441 0.09941689 0.07385755 0.1353376 -0.043858 0.106147565 -0.05605787 -0.19085237
0.07834563 0.11051191 0.16902266 0.09142066 0.092079155 0.052150253 0.13640942 0.16092502
0.11073449 -0.18300933 0.13771543 0.2016134 -0.10518702 0.07976076 0.14017975 0.08970758
0.03514025 -0.28735974 0.40312538 0.35271215 -0.67590237 0.027515378 0.12977782 0.31592482
-0.031994306 -0.03723781 0.13212979 0.22044182 0.28187263 0.028423747 0.18863642 -0.09973136
0.76515937 -0.1183281 -0.28081775 -0.3772867 0.17394915 0.3415947 -0.31058204 -0.05432203
0.27763462 -0.063462295 0.08968392 0.07900587 -0.2364795 -0.17606659 -0.020415239 -0.10175796
-0.33615565 0.02740512 -0.005621882 -0.18687753 -0.08181173 0.033021893 0.11567162 -0.060585722
-0.0026980261 0.19123338 0.34905297 0.21699461 -0.27731657 -0.08475884 0.035081152 -0.111594304
0.14123869 0.18487425 0.1872884 0.07269013 0.20108084 -0.14217134 -0.16568884 -0.09108833
0.006866587 0.065145865 0.0691946 0.069135934 -0.096364416 0.03867999 -0.038091917 0.03529617
00000000: f65e 643e 45ee 25be 665d f9bd 7b83 8bbc
00000010: a145 8abd b4ff 0bbe 9fcf b63e 3bf6 e8bd
00000020: 24ca 0fbe fccb a83e cb3c ce3d 9204 54be
00000030: abee 16bc 44d6 7c3e 85e1 06be 8d0c 51be
00000040: e94e d5bc 77dc 9c3d ffcf bbbd 0cbf f3bd
00000050: 7fcf 85bc 464c 8abe a8c1 febd bd6c af3e
00000060: 5d83 5abc b8bd cfbe 6a0f 873e ba89 a5be
00000070: 4dbb 73be 8867 403e b73d 953e 14e2 1bbe
00000080: 6e8c c73c d5cb 69bd c83f 85bc 2746 b9bc
00000090: fd06 62bd 3468 c63d 35e0 f83c 6e2b b2bd
000000a0: 2b74 143c 4060 b8bd d41b ad3d 2ed5 98be
000000b0: c38c ac3d 080a 02be a739 36bc 843d 09be
000000c0: 5bc0 a1bd b703 b73c 28a8 dbbd 98b2 bb3d
000000d0: f55f 9f3d 3fdc 0d3d 74ae 343d be74 1abe
000000e0: eac1 5c3e d622 37bd e48e 5fbe 134d 2a3e
000000f0: 2d1d 0dbe 34fc 3e3d 0c8a 043e b37d 263d
00000100: 405d bf3d ea3a b4be ed7b 3fbd c2e1 97be
00000110: 8ae4 4abd 5d0f d43d 45d4 ba3e f3bd a0bd
00000120: 5589 e63d f296 663e 8ff7 143e 08f8 87be
00000130: e789 793d 1fa1 d43d c737 05be 7b78 b93d
00000140: d072 853e e7ae 6a3e 1f5c 0dbe da58 09be
00000150: 4b9b 21be 661a 03be eac2 b03b 19eb ab3e
00000160: 0233 82be ad61 bcbe 0886 c9be 9e63 cc3e
00000170: c957 3abd 407b 93be 9604 19be 3700 3a3e
00000180: 3675 b4bd a601 4ebe 053d 3fbd 488b 0d3e
00000190: 61b9 433e bccb 393d 9b33 793d 6256 0abe
000001a0: 81ab 843d 9315 dbbc e4ec a63d 3b9a 72bd
000001b0: cd33 21bc 5a32 e9bd 8624 633e 7212 c9bd
000001c0: 08b2 cdbd 4ff4 76bd 803d c2bd 4e7f fc3d
000001d0: 0d97 6dbd 883d 18be 5d1d 863d 33a2 0b3e
000001e0: a031 a13c 7040 bd3c 1e58 9b3d cb63 963d
000001f0: 1798 15be ef36 413e 38e0 6e3e 6038 0fbe
00000200: 9959 c03d 3903 b93d c9ab e4bd 5047 01bf
00000210: 3d21 d03e 4024 0cba e829 b2be 8db4 1dbe
00000220: b6e2 0a3e 2d63 ff3e d7b2 9abd b44f 07bf
00000230: 073f ef3e c674 b23e 1f6e 9d3e 8188 16bd
00000240: 394c c53c 932a 343c 80dc d43e 4a79 7c3e
00000250: f880 d93d 6a50 ebbd 4b1d f63d 6f56 153f
00000260: 40bd 12bf 3a3a 38be bd69 fc3e 8909 0e3e
00000270: c4de b7be cbbf 07bf e3f4 b13b dcf5 da3e
00000280: a41e efbb 826b 373d 3c55 76bd 179e 723c
00000290: 7a80 93bd 291b 993e 9787 783e 19a7 23be
000002a0: 552e ed3e 159b cb3d a142 973d f195 0a3e
000002b0: 72a4 33bd e563 d93d f09c 65bd ce6e 43be
000002c0: ac73 a03d 1154 e23d 4714 2d3e c13a bb3d
000002d0: ff93 bc3d 819b 553d e9ae 0b3e 87c9 243e
000002e0: c4c8 e23d cc66 3bbe 4605 0d3e be73 4e3e
000002f0: 4b6c d7bd 9c59 a33d 488b 0f3e 9cb8 b73d
00000300: 39ef 0f3d d120 93be 7366 ce3e b096 b43e
00000310: f007 2dbf ee67 e13c 7ae4 043e e6c0 a13e
00000320: 760c 03bd ad86 18bd 084d 073e 80bb 613e
00000330: 9c51 903e ebd8 e83c e829 413e f53f ccbd
00000340: 7ce1 433f 0156 f2bd 58c7 8fbe b92b c1be
00000350: ba1f 323e 80e5 ae3e 9c04 9fbe c780 5ebd
00000360: 2026 8e3e 85f8 81bd 34ac b73d d4cd a13d
00000370: af27 72be cd4a 34be dc3d a7bc 7a66 d0bd
00000380: 981c acbe b480 e03c c437 b8bb d35c 3fbe
00000390: e98c a7bd f741 073d 3ee5 ec3d bc28 78bd
000003a0: 5ed1 30bb afd2 433e 12b7 b23e d633 5e3e
000003b0: 70fc 8dbe 0b96 adbd 41b1 0f3d 8e8b e4bd
000003c0: e0a0 103e ad4f 3d3e 88c8 3f3e 90de 943d
000003d0: 23e8 4d3e 5d95 11be 56aa 29be 858c babd
000003e0: 1b01 e13b 326b 853d e6b5 8d3d 2497 8d3d
000003f0: b55a c5bd e96e 1e3d 4506 1cbd b792 103d

bias f4 [150]
-0.061330218 -0.3754629 -0.2493604 -0.45266047 -0.3092168 0.04780003 -0.107482575 -0.31643397
-0.121271074 -0.17891768 -0.28344756 -0.1443495 -0.0060287607 -0.24109471 -0.3680848 -0.21549062
-0.09748878 -0.18478268 -0.08008468 -0.29344356 -0.35071036 -0.13535428 -0.19104736 -0.26199684
-0.25521347 -0.22137524 -0.28204095 -0.24241866 -0.35245427 -0.14363424 -0.24516389 -0.34305573
-0.09079411 -0.42191333 -0.03666309 -0.15582205 -0.42260012 -0.35758105 -0.1615453 -0.11134291
-0.22579144 -0.27673864 -0.21102065 0.036518216 -0.2925311 -0.24474207 -0.16784121 -0.19023113
-0.0018652224 -0.27453834 -0.08262426 -0.2810024 -0.44370207 -0.22542673 0.08133402 -0.38021922
-0.32651082 -0.12021013 -0.15030657 -0.17033121 -0.026386512 -0.20543754 -0.25752956 -0.26505637
-0.21951829 -0.20979226 -0.16411641 -0.21035926 -0.33126977 -0.19075985 -0.13354523 -0.17168029
-0.21636456 -0.352416 0.112773955 -0.16700959 -0.29829884 -0.006242672 -0.29439458 0.043462586
0.01997869 -0.26962766 -0.13848896 -0.4718182 -0.093340635 -0.3141705 -0.4242848 -0.25034636
-0.3421633 -0.25699073 -0.091713145 -0.31457683 -0.22587071 -0.07192546 -0.4416708 -0.43631068
-0.09875564 -0.14635803 -0.371037 -0.15101174 0.1405113 -0.2083563 -0.07028196 -0.12300989
-0.20335664 -0.38487494 -0.26412857 -0.18449922 -0.28009123 -0.24781539 -0.306647 -0.31578732
-0.15343733 -0.22793859 -0.1586707 -0.23456757 -0.17655239 -0.10318421 -0.34924942 -0.32946026
-0.11977778 -0.13182005 0.24496847 -0.077352606 -0.33436757 -0.18711193 -0.09117448 -0.34164107
-0.11462594 -0.28974319 -0.25345388 -0.2045224 -0.29142845 -0.22833312 -0.20396318 -0.19435447
-0.20748559 -0.38922378 -0.36460477 -0.06376263 -0.29604998 -0.28144062 -0.37862554 -0.27222174
-0.15545075 -0.11354374 -0.2986271 -0.14363974 -0.3198145 -0.33146438
00000000: 6535 7bbd ac3c c0be 5558 7fbe 1dc3 e7be
00000010: aa51 9ebe f7c9 433d d31f dcbd a203 a2be
00000020: f85c f8bd 3236 37be 0a20 91be 5bd0 13be
00000030: e98c c5bb 88e1 76be 9c75 bcbe 93a9 5cbe
00000040: 33a8 c7bd ac37 3dbe 7003 a4bd 3c3e 96be
00000050: 4f90 b3be 509a 0abe eba1 43be 7324 86be
00000060: 57ab 82be 31b0 62be ac67 90be 993c 78be
00000070: e374 b4be db14 13be 3e0c 7bbe 00a5 afbe
00000080: 43f2 b9bd 0605 d8be 092c 16bd d18f 1fbe
00000090: 0b5f d8be dd14 b7be 226c 25be c007 e4bd
000000a0: df35 67be b0b0 8dbe cc15 58be 2094 153d
000000b0: a3c6 95be aa9d 7abe 91de 2bbe f3cb 42be
000000c0: 7a7a f4ba 4a90 8cbe e836 a9bd 8cdf 8fbe
000000d0: eb2c e3be 44d6 66be 7392 a63d 18ac c2be
000000e0: 6d2c a7be bb30 f6bd f7e9 19be 4e6b 2ebe
000000f0: 8728 d8bc 385e 52be eada 83be 78b5 87be
00000100: 67c9 60be c8d3 56be 220e 28be 6b68 57be
00000110: 319c a9be 8d56 43be 15c0 08be f5cc 2fbe
00000120: ac8e 5dbe df6f b4be 08f6 e63d 9004 2bbe
00000130: a0ba 98be 548f ccbb e3ba 96be d305 323d
00000140: 5aaa a33c a30c 8abe 0dd0 0dbe 2892 f1be
00000150: 6029 bfbd f5da a0be db3b d9be 662d 80be
00000160: 0730 afbe 4a94 83be 1ad4 bbbd 3710 a1be
00000170: a74a 67be a84d 93bd ad22 e2be 1d64 dfbe
00000180: 6640 cabd e1de 15be 90f8 bdbe d2a2 1abe
00000190: 32e2 0f3e 5b5b 55be fdef 8fbd 9cec fbbd
000001a0: b93c 50be 540e c5be dc3b 87be 5ded 3cbe
000001b0: 1e68 8fbe 51c3 7dbe d600 9dbe e0ae a1be
000001c0: ad1e 1dbe bc68 69be 927a 22be 7b32 70be
000001d0: 26ca 34be 3e52 d3bd d2d0 b2be 04af a8be
000001e0: 0d4e f5bd d6fb 06be 04d9 7a3e 0b6b 9ebd
000001f0: 3a32 abbe 459a 3fbe b0b9 babd 94eb aebe
00000200: 01c1 eabd 3859 94be b5c4 81be 526e 51be
00000210: 1c36 95be 28d0 69be b9db 50be dc04 47be
00000220: 1a77 54be 5748 c7be 7aad babe fb95 82bd
00000230: dd93 97be fc18 90be 35db c1be a660 8bbe
00000240: 7b2e 1fbe 9f89 e8bd a7e5 98be 4c16 13be
00000250: babe a3be b3b5 a9be

weight f4 [100, 150]
-0.1929834 0.015865166 0.48127684 0.03444518 -0.16563392 0.13506308 -0.22491051 -0.3104393
0.07148244 -0.07643818 0.054265976 -0.150181 -0.3606195 -0.059059218 0.061974492 0.09438451
0.14380631 0.12618023 0.06768057 0.14430296 0.023989908 0.2295099 -0.15424219 0.011817593
0.12354232 -0.03616225 0.09882717 0.35187155 0.089764714 -0.068661965 -0.14134175 0.0329451
0.03183011 -0.07441118 0.25671417 -0.15935579 -0.2687144 0.33769107 0.1588634 -0.11394975
0.0032053369 -0.11340768 0.35004497 0.38099968 -0.1909448 0.0322765 -0.23045184 0.17062978
-0.16924094 0.016474785 -0.048019454 0.057580806 0.12356586 -0.13407966 -0.009191144 0.09325304
-0.24794 -0.028885243 -0.046419244 -0.020370584 -0.288845 -0.11499906 -0.01696437 0.2841263
-0.19555524 -0.028093534 0.4395605 -0.15927672 0.3727908 -0.03912923 -0.026361944 0.2888953
0.07837268 0.26233009 0.16439338 -0.05078132 0.13260019 -0.14163661 0.28920496 -0.057816215
-0.19566654 -0.11440336 -0.15326482 0.050596826 0.2813151 0.13107932 -0.06196714 -0.17156097
0.27263367 -0.051872518 0.22793896 -0.16926436 -0.17473201 -0.048684508 -0.14593996 0.29875243
-0.045204297 -0.13092145 -0.10824524 0.24410197 -0.010724169 -0.19368702 -0.3089412 0.15016435
0.17140864 0.29518607 0.07762034 0.016868128 -0.32631823 -0.060925137 0.07885318 -0.07023643
0.23117118 0.09451022 -0.19942337 0.24647278 -0.24107662 -0.29251385 0.13035932 0.010124376
-0.11224634 0.18664828 -0.2690261 0.16975762 0.10497834 -0.12895763 -0.15746963 0.38127455
-0.046558417 0.008810413 0.012341486 0.22474554 0.09346047 -0.23692484 -0.0017007873 -0.006195464
-0.060998965 -0.08002403 0.024296122 -0.07018995 0.050444502 -0.12149638 -0.09131721 0.12669195
-0.089565344 -0.28123307 0.17754449 0.018008677 0.19057609 0.1504354 0.0545213 -0.13813128
0.48099855 0.12791142 0.13356958 0.45525938 -0.06822094 -0.07943252 -0.13803962 0.08857831
-0.031570025 -0.19203445 -0.14435282 -0.19172595 -0.04067915 -0.1015257 0.021337887 0.0015601027
0.09786249 -0.17126793 0.116480276 0.12952894 -0.09218987 -0.027846789 0.0012860309 0.13656846
0.08158782 -0.10762951 -0.019824324 0.07352656 -0.10973878 0.02216216 -0.13939509 0.20266676
0.046978954 -0.05431951 0.059776895 -0.036281634 0.0116574885 -0.12631091 0.06110164 -0.18080473
0.04907916 0.07228511 0.084210075 0.036968254 -0.10464191 -0.19129236 -0.22000602 -0.14527553
-0.04426651 -0.16057761 0.0018174172 0.065690234 0.001958503 0.25815034 -0.09450517 0.0358865
-0.02286626 -0.011439194 -0.18703635 -0.0713823 -0.051196214 -0.086405255 0.010798715 0.019401254
0.1560449 0.12318522 0.19147998 0.105471455 0.017918292 0.07072633 0.033222247 0.037601832
-0.20649303 -0.10709889 0.18119206 -0.10472861 -0.11146561 -0.00309906 -0.18698023 -0.036132485
-0.23518382 0.19409408 0.005112364 0.25390655 -0.05357818 -0.072456405 0.17118241 -0.17399928
-0.13517238 0.2792778 -0.071924366 0.021429382 0.167781 -0.014388574 -0.18729143 -0.15650776
-0.013713671 0.06831824 -0.12779643 0.06455232 -0.1420147 0.057016913 -0.11555712 0.23045112
00000000: 719d 45be aaf7 813c eb69 f63e 6416 0d3d
00000010: f09b 29be fa4d 0a3e f14e 66be e6f1 9ebe
00000020: 6365 923d 9f8b 9cbd 0046 5e3d 0cc9 19be
00000030: 1ea3 b8be 14e8 71bd f7d8 7d3d aa4c c13d
00000040: f641 133e 6435 013e 1c9c 8a3d 28c4 133e
00000050: 7c86 c43c a504 6b3e aaf1 1dbe 949e 413c
00000060: c203 fd3d de1e 14bd e665 ca3d 8228 b43e
00000070: 90d6 b73d a59e 8cbd e4bb 10be 71f1 063d
00000080: 4a60 023d e464 98bd 0a70 833e 2a2e 23be
00000090: ef94 89be d8e5 ac3e 16ad 223e 7d5e e9bd
000000a0: a110 523b 4942 e8bd 1839 b33e 6412 c33e
000000b0: 0987 43be 5d34 043d 91fb 6bbe 93b9 2e3e
000000c0: 7f4d 2dbe 21f6 863c 0cb0 44bd dad9 6b3d
000000d0: 1910 fd3d 2e4c 09be 7496 16bc 73fb be3d
000000e0: fce3 7dbe bfa0 ecbc 1b22 3ebd 36e0 a6bc
000000f0: 7ee3 93be a184 ebbd ddf8 8abc 0179 913e
00000100: a23f 48be 6924 e6bc 130e e13e 7019 23be
00000110: 70de be3e f945 20bd 01f5 d7bc 16ea 933e
00000120: db81 a03d 2150 863e bd56 283e 1300 50bd
00000130: 58c8 073e 3009 11be ac12 943e b2d0 6cbd
00000140: cf5c 48be 4f4c eabd 74f1 1cbe 9e3e 4f3d
00000150: 8808 903e a839 063e 41d1 7dbd aead 2fbe
00000160: a496 8b3e 4778 54bd d568 693e a353 2dbe
00000170: f3ec 32be 6869 47bd 4971 15be 14f6 983e
00000180: 2428 39bd 4610 06be aeaf ddbd def5 793e
00000190: 6db4 2fbc e455 46be 8a2d 9ebe afc4 193e
000001a0: bf85 2f3e a122 973e 6af7 9e3d 072f 8a3c
000001b0: 2f13 a7be a38c 79bd c77d a13d 1ed8 8fbd
000001c0: 23b8 6c3e 938e c13d a435 4cbe 5c63 7c3e
000001d0: cadc 76be 60c4 95be ea7c 053e b6e0 253c
000001e0: 69e1 e5bd ba20 3f3e cabd 89be f1d4 2d3e
000001f0: e2fe d63d 780d 04be b83f 21be 6b36 c33e
00000200: 0ab4 3ebd 8d59 103c f233 4a3c b223 663e
00000210: 3468 bf3d 6d9c 72be f4ec deba 5203 cbbb
00000220: 0dda 79bd a3e3 a3bd a908 c73c c0bf 8fbd
00000230: e59e 4e3d 18d3 f8bd 8404 bbbd 89bb 013e
00000240: 096e b7bd c8fd 8fbe 39ce 353e ef86 933c
00000250: 6126 433e bd0b 1a3e ba51 5f3d 4972 0dbe
00000260: 7145 f63e 36fb 023e 77c6 083e c217 e93e
00000270: 6cb7 8bbd 84ad a2bd 425a 0dbe 8c68 b53d
00000280: 924f 01bd aea4 44be 3ad1 13be cf53 44be
00000290: 2e9f 26bd b5ec cfbd cbcc ae3c 5c7c cc3a
000002a0: 216c c83d dc60 2fbe 368d ee3d 3ca3 043e
000002b0: 0bce bcbd f31e e4bc 0990 a83a 9ad8 0b3e
000002c0: 8417 a73d dc6c dcbd 9f66 a2bc 1895 963d
000002d0: babe e0bd 6b8d b53c 96bd 0ebe e087 4f3e
000002e0: 016d 403d 227e 5ebd 9ed8 743d 0d9c 14bd
000002f0: 0dff 3e3c a657 01be b745 7a3d e024 39be
00000300: 3b07 493d 370a 943d 5576 ac3d 066c 173d
00000310: 7f4e d6bd 25e2 43be 4249 61be 1cc3 14be
00000320: cd50 35bd 756e 24be 6736 ee3a 9a88 863d
00000330: 3a5a 003b 482c 843e ed8b c1bd b9fd 123d
00000340: 0652 bbbc 756b 3bbc 7586 3fbe e230 92bd
00000350: 1fb3 51bd 3df5 b0bd 18ed 303c 61ef 9e3c
00000360: 3cca 1f3e 8848 fc3d 5413 443e 6b01 d83d
00000370: 62c9 923c f7d8 903d 0d14 083d 6104 1a3d
00000380: e972 53be aa56 dbbd 698a 393e f47b d6bd
00000390: 1548 e4bd 9919 4bbb bf77 3fbe a8ff 13bd
000003a0: 07d4 70be 99c0 463e 9e85 a73b 0a00 823e
000003b0: cb74 5bbd 0664 94bd 714a 2f3e de2c 32be
000003c0: a16a 0abe 80fd 8e3e 154d 93bd ac8c af3c
000003d0: c8ce 2b3e 0ebe 6bbc 53c9 3fbe 9243 20be
000003e0: 4eaf 60bc 6fea 8b3d 11dd 02be 0234 843d
000003f0: 4d6c 11be 918a 693d 36a9 ecbd 61fb 6b3e

bias f4 [100]
0.12023079 -0.19941868 0.10930551 0.067200914 -0.051559743 -0.010495435 -0.097928 0.12341421
0.008098488 -0.052013595 0.02036963 -0.017421583 -0.029955016 0.025190754 -0.09407356 -0.11905625
-0.11849239 -0.13716893 -0.0784584 -0.067891456 0.017378911 -0.10937647 -0.012656584 -0.14210555
-0.025359089 0.013353964 -0.09279885 -0.015058538 -0.10649164 0.03093778 -0.22429879 -0.11426349
-0.022461979 0.0034178696 0.101645336 -0.07039092 -0.0493098 0.12741387 -0.060061365 -0.065161675
-0.0010055922 -0.06488856 -0.1886186 0.03845321 -0.04305593 -0.12972325 -0.031848878 -0.060084242
-0.079985745 -0.054343704 0.026131587 -0.082205914 -0.18559487 -0.10658248 -0.05350553 -0.00014159699
0.07802606 0.14527373 -0.14239293 -0.032038413 -0.0754866 0.03177154 -0.108751275 -0.09307096
0.089678764 -0.06617129 0.0064774323 -0.10167106 -0.1284441 0.053350896 -0.07228281 -0.050737657
-0.06853736 0.01178101 -0.0814404 -0.0649269 -0.028967405 -0.06324417 -0.062012214 -0.077928364
-0.07206241 -0.07161511 -0.0024751215 -0.019594776 -0.05000994 -0.09265102 -0.03427322 -0.03730206
0.015299904 0.09236622 -0.05878352 0.045875777 -0.121950924 0.019050967 -0.037510734 -0.038287487
-0.092747405 0.14300236 -0.06615138 -0.03834238
00000000: 8f3b f63d 6934 4cbe 91db df3d a2a0 893d
00000010: 4f30 53bd 0cf5 2bbc 7a8e c8bd 97c0 fc3d
00000020: 85af 043c 350c 55bd 36de a63c b5b7 8ebc
00000030: 3964 f5bc d75c ce3c a3a9 c0bd c3d3 f3bd
00000040: 23ac f2bd 0376 0cbe ccae a0bd ad0a 8bbd
00000050: 385e 8e3c c500 e0bd 905d 4fbc 1e84 11be
00000060: ddbd cfbc 96ca 5a3c 530d bebd 16b8 76bc
00000070: 4a18 dabd 3a71 fd3c 95ae 65be fa02 eabd
00000080: 2f02 b8bc 56fe 5f3b 6e2b d03d 1d29 90bd
00000090: 13f9 49bd c878 023e e802 76bd 7c73 85bd
000000a0: 13ce 83ba 4be4 84bd 3c25 41be 1d81 1d3d
000000b0: 6a5b 30bd 2cd6 04be f873 02bd e51a 76bd
000000c0: 91cf a3bd 8197 5ebd e911 d63c 935b a8bd
000000d0: 950c 3ebe ea47 dabd 9d28 5bbd a779 14b9
000000e0: 20cc 9f3d a3c2 143e 74cf 11be b63a 03bd
000000f0: b898 9abd e022 023d fdb8 debd fd9b bebd
00000100: 80a9 b73d d084 87bd a440 d43b eb38 d0bd
00000110: da86 03be 7886 5a3d 0309 94bd 4ad2 4fbd
00000120: 515d 8cbd 2305 413c 39ca a6bd 65f8 84bd
00000130: 0d4d edbc 2986 81bd 8500 7ebd e898 9fbd
00000140: 7595 93bd f1aa 92bd a635 22bb 3985 a0bc
00000150: 39d7 4cbd d1bf bdbd 1362 0cbd 0bca 18bd
00000160: 73ac 7a3c 802a bd3d fdc6 70bd 3de8 3b3d
00000170: 68c1 f9bd c610 9c3c dba4 19bd 57d3 1cbd
00000180: 5af2 bdbd 366f 123e 607a 87bd e60c 1dbd

weight f4 [4, 100]
0.26432547 0.056903806 -0.044900052 0.20616856 -0.07956048 -0.19627602 0.009039447 0.01197204
-0.10582212 0.00083735556 -0.06321377 0.07364738 -0.02770884 0.05861875 -0.35113534 -0.06729728
0.035277255 -0.20901215 -0.039534952 -0.16779818 0.051164053 -0.09601449 0.13426484 -0.16703957
0.006154552 -0.018524183 -0.011803675 0.08029936 0.0011807904 0.09558717 -0.046626423 0.08830985
0.032803446 -0.07172261 0.19350822 -0.1464871 0.0029004272 -0.063799985 -0.15348367 0.039621513
-0.011082265 -0.07201849 -0.33951676 0.05567542 -0.21519734 0.08991229 -0.05888574 -0.061794337
-0.008401595 -0.12907697 0.0026854516 0.024957526 0.0015187758 -0.107143685 -0.077142395 0.025933051
-0.17075454 0.21044812 -0.07649472 0.034155644 -0.26555446 -0.055939484 0.035172645 -0.05072439
0.14401707 -0.33540955 0.08357213 -0.06520001 -0.040165428 -0.21337971 0.06558103 0.014624487
-0.13098584 -0.05312289 -0.054535966 0.049518023 -0.28610623 -0.13076034 0.078558676 -0.08895638
-0.11921956 0.021829464 -0.016685905 0.06904867 0.07059198 -0.08122758 -0.07218664 -0.0040136487
-0.10594313 -0.22423476 -0.15766966 -0.24865459 -0.012209365 -0.25624067 -0.03652127 0.0141167315
0.06777824 0.10320223 -0.20621572 -0.004170251 -0.13388486 -0.09269207 -0.24704102 0.29236284
-0.045228053 -0.24316642 0.04626019 0.22372207 -0.023317143 -0.020534387 -0.08347937 0.025778595
-0.07365728 -0.2845637 -0.0011632357 0.068895355 0.08252711 -0.06162902 -0.05421064 -0.038725886
0.099785164 0.02147589 0.15642463 -0.050163243 -0.00074269454 -0.12316597 0.059726343 0.0598285
-0.009678524 0.04798585 -0.10268317 0.051572513 -0.06441867 -0.0105104605 -0.1292424 -0.18441817
-0.032407198 -0.07269468 0.0016683034 0.09231896 0.0075318213 -0.02314262 -0.2505147 -0.055104822
0.021280155 -0.095965214 -0.13702625 0.036337227 0.02205648 -0.008597922 -0.010131444 0.0035817407
-0.26352695 -0.040067486 0.06781713 -0.03677213 0.33552954 -0.108776145 0.042399637 -0.046016913
-0.26127934 0.12946334 -0.0009917257 -0.19604771 -0.1642464 -0.15232524 0.052243367 -0.06348218
-0.058020946 0.21529359 0.069019444 0.051143274 -0.05891732 -0.06393508 0.06278184 0.04124113
-0.13274868 0.0011086031 -0.04532357 0.028568126 -0.009406155 0.030444091 0.07766434 -0.09576573
0.0017620175 -0.0061587505 -0.1813764 -0.017551301 0.006566957 -0.15790848 -0.2285737 -0.12648235
0.043783955 0.13285443 0.056452073 -0.08631752 -0.038249698 -0.14139058 -0.16091222 0.08278963
0.039697457 -0.16599838 0.20291376 0.049590606 0.033932704 -0.12073099 0.067863256 0.26468346
-0.04209553 -0.0029297706 -0.21359083 0.03093666 -0.05891504 -0.24700134 -0.12757623 -0.020749496
-0.008735127 -0.24829757 -0.029142668 -0.35230723 0.030407656 0.052694887 -0.09662342 -0.11531065
0.018821612 0.04111943 0.08482197 0.05422104 0.032190688 0.0043676496 -0.099649414 0.02528689
-0.068942904 0.027407533 0.17451255 -0.0936051 -0.029425127 -0.047056925 -0.03731247 0.05360224
-0.023313187 -0.042361118 -0.19081731 0.002431134 0.29235125 0.042962853 -0.10229241 0.04616578
-0.056762755 -0.15444793 0.004991699 -0.24731708 -0.2882073 -0.010169739 -0.09555968 0.056838863
00000000: ab55 873e f713 693d 1ee9 37bd da1d 533e
00000010: 9bf0 a2bd 95fc 48be 301a 143c 6026 443c
00000020: 45b9 d8bd fb81 5b3a 3976 81bd 70d4 963d
00000030: a6fd e2bc 371a 703d 03c8 b3be 28d3 89bd
00000040: e27e 103d 4807 56be 67ef 21bd 49d3 2bbe
00000050: 6691 513d 3fa3 c4bd b97c 093e 6c0c 2bbe
00000060: 20ac c93b 07c0 97bc 3464 41bc fe73 a43d
00000070: c0c4 9a3a 35c3 c33d 59fb 3ebd cbdb b43d
00000080: e85c 063d 4ee3 92bd 0527 463e b700 16be
00000090: 1815 3e3b 91a9 82bd d32a 1dbe 2b4a 223d
000000a0: 6392 35bc 6e7e 93bd 24d5 adbe e90b 643d
000000b0: b15c 5cbe ef23 b83d 2c32 71bd 0f1c 7dbd
000000c0: d8a6 09bc c12c 04be 67fe 2f3b ba73 cc3c
000000d0: a911 c73a 266e dbbd d5fc 9dbd 8d71 d43c
000000e0: 47da 2ebe b67f 573e 44a9 9cbd cae6 0b3d
000000f0: c1f6 87be cd20 65bd 3111 103d 61c4 4fbd
00000100: 3679 133e cdba abbe dd27 ab3d 9587 85bd
00000110: 8184 24bd 3680 5abe 594f 863d 8b9b 6f3c
00000120: 2721 06be 6397 59bd 1b61 5fbd 69d3 4a3d
00000130: 847c 92be 0ae6 05be 5fe3 a03d c32e b6bd
00000140: 6229 f4bd b4d3 b23c e1b0 88bc 6469 8d3d
00000150: 8792 903d a55a a6bd 97d6 93bd ed84 83bb
00000160: b6f8 d8bd cc9d 65be 2874 21be 4f9f 7ebe
00000170: ca09 48bc fa31 83be 5497 15bd dd49 673c
00000180: 51cf 8a3d b15b d33d 372a 53be 9aa6 88bb
00000190: 1d19 09be 57d5 bdbd 52f8 7cbe 95b0 953e
000001a0: 0d41 39bd 9e00 79be 537b 3d3d 6617 653e
000001b0: 9803 bfbc bb37 a8bc 3bf7 aabd a22d d33c
000001c0: a1d9 96bd 55b2 91be b777 98ba 0219 8d3d
000001d0: f903 a93d b66e 7cbd fa0b 5ebd 099f 1ebd
000001e0: 2a5c cc3d 35ee af3c c72d 203e f977 4dbd
000001f0: 63b1 42ba 713e fcbd 9ca3 743d bb0e 753d
00000200: ac92 1ebc d08c 443d 8e4b d2bd b33d 533d
00000210: f0ed 83bd 1134 2cbc 1f58 04be 1ed8 3cbe
00000220: 69bd 04bd f3e0 94bd f9aa da3a b911 bd3d
00000230: 7fcd f63b 9895 bdbc 7643 80be 98b5 61bd
00000240: b853 ae3c 6989 c4bd 9c50 0cbe 58d6 143d
00000250: cbaf b43c 4cde 0cbc 5bfe 25bc a3bb 6a3b
00000260: 01ed 86be ce1d 24bd b5e3 8a3d 5f9e 16bd
00000270: 87ca ab3e 07c6 debd 3eab 2d3d 3b7c 3cbd
00000280: 68c6 85be 0a92 043e cbfc 81ba bbc0 48be
00000290: 3530 28be 26fb 1bbe 24fd 553d f202 82bd
000002a0: 5fa7 6dbd ec75 5c3e 115a 8d3d 9c7b 513d
000002b0: 4a53 71bd 65f0 82bd c493 803d 76ec 283d
000002c0: 45ef 07be 8c4e 913a 35a5 39bd b407 ea3c
000002d0: 461c 1abc e365 f93c 7b0e 9f3d d320 c4bd
000002e0: 7ff3 e63a 58cf c9bb bcba 39be bfc7 8fbc
000002f0: a12f d73b c3b2 21be 390f 6abe 9784 01be
00000300: ce56 333d fe0a 083e 4a3a 673d 3dc7 b0bd
00000310: b7ab 1cbd b1c8 10be 2cc6 24be 9c8d a93d
00000320: cd99 223d 7bfb 29be a0c8 4f3e 851f 4b3d
00000330: 05fd 0a3d cf41 f7bd e4fb 8a3d 9784 873e
00000340: 5d6c 2cbd 6501 40bb 8eb7 5abe e16e fd3c
00000350: e650 71bd ebed 7cbe 58a3 02be d9fa a9bc
00000360: c71d 0fbc b841 7ebe 9bbc eebc 9d61 b4be
00000370: 7a19 f93c 98d6 573d 80e2 c5bd fd27 ecbd
00000380: c82f 9a3c d96c 283d 24b7 ad3d e216 5e3d
00000390: 62da 033d 801e 8f3b fe14 ccbd 7426 cf3c
000003a0: f031 8dbd c385 e03c 6bb3 323e 08b4 bfbd
000003b0: f70c f1bc c3be 40bd f6d4 18bd 068e 5b3d
000003c0: 4cfb bebc da82 2dbd 9d65 43be a953 1f3b
000003d0: 10af 953e d1f9 2f3d af7e d1bd 5418 3d3d
000003e0: 1080 68bd 9927 1ebe 6891 a33b b040 7dbe
000003f0: e88f 93be fa9e 26bc cbb4 c3bd decf 683d

bias f4 [4]
0.07649527 0.10972837 0.11378351 0.0049663135
00000000: 8da9 9c3d 45b9 e03d 5407 e93d 75bc a23b
