DRL_in_Action/GridWorldModel.pth (torch, 104223 bytes, 6 tensors)

weight f4 [150, 64]
00000000: 9449 023d 9265 7ebc 1865 dc3e b388 953d
00000010: 3753 cfbd 1776 f3bd c1b3 2b3c 00f0 003d
00000020: 336b 02be 1d01 ddbd b851 ebbc 50f5 d83d
00000030: 22bf fcbd 85c2 a9bd 83d7 19bd dd29 d8bd
00000040: aaf0 d2bd 2c44 30be 5e49 a23d de04 513d
00000050: aba6 b1bc a26e 303d 9ada 0dbd 4bed 103e
00000060: b1f8 a43c ff92 20bd 79c5 05bd 31f6 3f3e
00000070: ecbe eb3d 501b 2b3b ac5d 98bd 22e5 cebb
00000080: acb4 0fbe 1cd6 4e3d 1b53 fa3d 1178 91bd
00000090: b331 073e 5219 91bd 4588 833b dbf0 a33d
000000a0: e821 bc3c f4b3 83bd 8611 1f3b 4131 c6bd
000000b0: 569e e03d c155 2ebb 71a4 b0bc 6921 0ebd
000000c0: 2a46 09be 2779 1fbd 1799 ac3d cffc 10bd
000000d0: 924b a3bd c358 58bd 1458 ad3d 0b77 db3d
000000e0: cd6c 48bd d692 0ebd d076 e1bd 95a2 ae3d
000000f0: 70e1 92bc 4afc 833d 41aa 84bc 047a 0e3e
00000100: f0f2 d4bc e89c e1bd e855 acbd acda f1bd
00000110: 34c9 4dbd 2086 34bc 64e8 893d 5a7d fabd
00000120: 482f 1c3d 8607 a33d a2ff 863d 7eec ed3d
00000130: 6a7e a63d 2253 933d 80dd 5e3b a224 933d
00000140: 5c19 2b3d 38ac afbd 3a3b c9bd 9a17 b23d
00000150: d284 8c3d 0087 3fbc 8ae1 e7bd 9091 c83d
00000160: c43f 23bd 9ece ab3d 5285 de3d c6f7 893d
00000170: 40a6 f73c 18a8 16bd 6057 aabb 608c 073c
00000180: 6410 62bd 88a3 e1bc 1eaf fbbd d070 053d
00000190: 9864 9e3c 8061 5f3c c04f 52bd 5426 6fbd
000001a0: 360a e2bd d022 6bbd 4438 cebd 16b9 fbbd
000001b0: 50fa 2ebc 0a10 99bd f064 9cbd 80b1 703c
000001c0: 988c 183d 0c90 f73d f0ae 47bd c4f4 09bd
000001d0: b27c 8e3d 1add 83bd 8431 833d 50a9 3abd
000001e0: f4b9 4c3d 6c3a 3abd 8235 d6bd 0861 fabc
000001f0: 9c47 683d 2020 ebbd b003 edbc 10f2 8fbd
00000200: 2bf0 773c 3824 23be a494 773e 9617 a6be
00000210: c022 a7bd aa0d f7bd 4877 61be ce5d adbd
00000220: 3c83 61be cfbf 9abd cf68 a1bd 0d78 30be
00000230: 092f 8abe ef71 34be 68b6 0fbe d22c 3cbe
00000240: d56c 42bd 13f8 46be 8cd1 31be 4ef8 20be
00000250: 5122 203d b546 3cbd 003a fcbc e704 803d
00000260: 086c 08be a8b1 30bd 10fc 8b3d d7ec 833d
00000270: 2d7c 47be 5d92 43bc abe9 51be ce12 14be
00000280: 932a debd 7864 f83c 2b2e e0bd a8cd 89bd
00000290: 280d aebd 85fe 18be a2b3 0cbe 4a2c aabd
000002a0: 3b9f 45be 36e4 11bd 8d01 2bbe 0b72 64bd
000002b0: f2e6 1c3c ef9a b43b 1661 1ebd 9fd6 e2bc
000002c0: 6b75 74bd 5707 dcbd f9e4 633d b39a 31be
000002d0: 0112 313d 3607 b0bd 991a 1abe 4dc0 073c
000002e0: a8a4 41be c6e1 cfbd 354f 023d 4ef9 b9bd
000002f0: ddb0 06bd 1a47 1fbe 1b58 41be 4743 003e
00000300: dba1 6ebd 5a7f 88bd 1f03 e73d 5bf6 08be
00000310: 3832 d33d 9f1d 96bd c094 0abe 3868 86bd
00000320: c213 17be 6a69 8fbd efb8 0bbe fdec 1cbe
00000330: 6bb9 23be e004 cebc 9c37 ff3d ee5e 04be
00000340: ee81 babd fd6c d5b9 c2fc 8fbd 32ba eabd
00000350: 780d 14bd 2102 1abd 81dc 313d 29e7 e8bc
00000360: 3e17 d6bd eab9 8d3d 16c7 e8bd 2217 92bd
00000370: fdb1 f9bb b4f6 0fbe 2629 9a3c 1ed3 a43d
00000380: f003 c4bd 0352 c23d f2cc 8fbd fa08 1abe
00000390: 25fc 233d 17a0 c63d 0b03 bb3d 4bf3 ff3c
000003a0: b8b7 0a3d a5ea 423d 6f4b 1fbe 46af e5bd
000003b0: 9f10 e33d 5e45 9bbb c018 f6bb 1dce 033d
000003c0: 8f71 0dbd 5237 0e3e a6e8 92bc b50a 22be
000003d0: fae8 a8bd 6f91 f0bd 5173 753b 72ec c8bd
000003e0: abae 25be e7c2 32bd dace a03c 1ca3 9b3d
000003f0: 3a02 0dbe 1bb3 63bc 4ddd a1bd 08ea 57bd
0.03180845 -0.015527146 0.43045878 0.07301464 -0.10123294 -0.11887758 0.010479868 0.03147888
-0.12736206 -0.10791228 -0.02872549 0.10593665 -0.12341143 -0.08289055 -0.037559044 -0.1055486
-0.10299809 -0.17213506 0.0792415 0.051030032 -0.021685919 0.043074258 -0.034632303 0.1415302
0.020138117 -0.039202686 -0.032659028 0.18746258 0.11511025 0.0026108809 -0.074397415 -0.006313936
-0.14033765 0.05049716 0.12222882 -0.07102979 0.13202552 -0.070849076 0.0040140473 0.08004924
0.022965387 -0.06430808 0.002427192 -0.09677363 0.109677 -0.0026601406 -0.021562787 -0.03469983
-0.13405672 -0.0389339 0.08427637 -0.035397347 -0.07973398 -0.052819025 0.08464065 0.10716065
-0.048931886 -0.034808002 -0.1100899 0.08527104 -0.017929763 0.06444605 -0.016194465 0.13913733
-0.025994748 -0.110162556 -0.08414823 -0.118092865 -0.05024071 -0.011018306 0.06733778 -0.1223094
0.03813103 0.07960419 0.06591727 0.11617373 0.0812958 0.07193591 0.0034006536 0.071847215
0.04177223 -0.0857777 -0.0982575 0.08695908 0.06861271 -0.011689901 -0.11322315 0.09793389
-0.039855734 0.083890185 0.108652726 0.06736712 0.030230641 -0.0367814 -0.005198404 0.008273214
-0.055191413 -0.027543798 -0.1228926 0.03257829 0.019335076 0.013634086 -0.051345587 -0.058386162
-0.11037104 -0.057406247 -0.100693256 -0.12291162 -0.010679796 -0.07473762 -0.0763644 0.014690757
0.037243456 0.12088022 -0.048750818 -0.033680692 0.069573775 -0.06438656 0.06405929 -0.045571625
0.049982026 -0.04546587 -0.104594246 -0.030563846 0.056708917 -0.11480737 -0.028932422 -0.07028592
0.015132944 -0.15931785 0.24177796 -0.3243987 -0.08160925 -0.12063153 -0.22018158 -0.084651574
-0.22022718 -0.07556116 -0.07881319 -0.17233296 -0.2698901 -0.17621587 -0.14034426 -0.18376473
-0.04746707 -0.1943057 -0.17365092 -0.1571972 0.039095227 -0.04596587 -0.030789375 0.06250935
-0.1332246 -0.043138176 0.068351865 0.06441658 -0.19480963 -0.011936751 -0.20499294 -0.14460298
-0.10847964 0.030321345 -0.10946306 -0.06728679 -0.08498603 -0.14940841 -0.137404 -0.08309229
-0.19299023 -0.03561803 -0.1669981 -0.055772822 0.009576546 0.0055116336 -0.038666807 -0.02769023
-0.05968229 -0.107435875 0.055638287 -0.1734417 0.04323006 -0.085951254 -0.15049209 0.008285594
-0.18910468 -0.10150485 0.03181382 -0.09080754 -0.032883514 -0.15554467 -0.18881266 0.12525664
-0.058259826 -0.066649154 0.11279892 -0.13375227 0.10312313 -0.073298685 -0.13533306 -0.06562847
-0.14753631 -0.07002528 -0.13644765 -0.15324779 -0.159887 -0.025148809 0.124617785 -0.12926838
-0.09106813 -0.00040707728 -0.070306316 -0.11461295 -0.036145657 -0.037599687 0.04342318 -0.028430538
-0.10453652 0.06920226 -0.11366098 -0.071333185 -0.007620095 -0.14058954 0.01881845 0.0804808
-0.095710635 0.09488299 -0.07021512 -0.15042487 0.040035386 0.096985035 0.0913144 0.03124394
0.033866614 0.047587056 -0.1555612 -0.112150714 0.110871546 -0.004738494 -0.0075102746 0.032178987
-0.034532126 0.1388829 -0.017933201 -0.15824397 -0.08247562 -0.11746489 0.0037452767 -0.09810723
-0.16179912 -0.043642905 0.019629885 0.0759947 -0.1377038 -0.013897683 -0.07903538 -0.052713424

bias f4 [150]
00000000: 2d34 6b3d a05e cdbd b3cb 993c 26dd 793b
00000010: 3ef0 eabd 2927 d03c 4e3c 7ebd c4dc c5bd
00000020: 5adb 583c 0fae 28be 9cf1 b83d 6808 8bbc
00000030: b63d 25be 7b9c 933c 9a99 ba3d e311 0abc
00000040: 984e 4cbd 0aa8 92bd 75cd 94bd 802a 513d
00000050: 220b 82bb d775 253d 78f5 263e fe94 87bd
00000060: 5d81 003e 11e5 493d c432 bfbd 2a02 f7bd
00000070: e109 b3bd 12d4 b0bd 56e2 04be c2b7 e8bd
00000080: 6707 d13d 0428 263c c12b 3f3d 10ca 2fbd
00000090: d471 55bd 15dd e0bb b4f6 debd d025 aabc
000000a0: 7c04 c9bd 30fd 7a3d 0e54 463d 95bf 70bd
000000b0: 8526 823d e52b c2bc 7689 95bd be17 643d
000000c0: 05bd 49bb bb76 9abd a66c 6d3d 55db 16bc
000000d0: d529 aa3d 8ee1 e73c a71b a439 32cd c33b
000000e0: d132 f7bc 12ac 12be 0327 dc3d f50b eb3c
000000f0: 0c33 c43d aa96 a93d 0caa 913c 88a8 5cbd
00000100: 22fd cdbc 6c11 3e3d 9340 463d cbb4 12be
00000110: a096 153d 6b13 ea3d 00d9 9cbd 3497 283d
00000120: cee4 92bb 49f3 f3bd 86af 79bc a25d cebd
00000130: 5c8f 473d 764b acbd d9ae ad38 1d40 683b
00000140: 1ad3 923d 0536 ed3d 1427 c8bc 9755 223e
00000150: f82b dbbd 39a7 433b 75f9 09bd 8c15 ff3c
00000160: 806e 61bd 5400 913d e6e1 efbd 5ab9 3e3d
00000170: 205c 14bd f527 1e3d b866 c8bd 5380 d83d
00000180: 6f76 e8bd 824b b6bd 8629 083d 9180 cc3c
00000190: 2264 863c 76f7 033e f487 6e3d 2869 d3ba
000001a0: a208 73bc c84b a5bd 7c8b f2bd 5a94 e4bd
000001b0: 1801 d3bd 16d0 cb3c 81e2 f93a 7125 72bd
000001c0: 218a 8f3d 06c2 c7bd 142d 25be c464 263c
000001d0: 0070 25bd 4bfe 73bc 6b40 2fbd ec33 32bd
000001e0: 1ce4 1e3d 22e2 adbc 343a 5abd 98db a4bd
000001f0: ebb2 ed3c be69 013d 8024 13bd acda ec3c
00000200: 8c63 c93d 6af5 05bc d113 90bc 1a79 923c
00000210: cf45 89bd b1d7 f1bd 1bba c33d 80ef febc
00000220: 5bf5 0b3d 3c11 173d de9e f83c ba34 043c
00000230: 9d04 de3d 708e 3dbd 5491 8cbd 4f96 0bbe
00000240: e6e6 29bd 1578 b9bc 55d1 c43d f422 9a3d
00000250: 2f13 eebc 0894 383d
0.057422806 -0.10027814 0.01877389 0.00381262 -0.11471604 0.025409298 -0.06206923 -0.09661248
0.013235891 -0.16472648 0.09030458 -0.016971782 -0.16136822 0.018018952 0.091113284 -0.008427116
-0.04987964 -0.07160957 -0.0726575 0.05106592 -0.0039686123 0.040395584 0.16304576 -0.06620215
0.12549348 0.04929072 -0.09335855 -0.1206096 -0.087421186 -0.08634199 -0.12976965 -0.11363174
0.1020649 0.010141376 0.046672586 -0.04291731 -0.052110508 -0.0068622925 -0.10886899 -0.020769984
-0.098153085 0.061276615 0.048420005 -0.058776457 0.06355003 -0.023702571 -0.07301609 0.055686705
-0.003078283 -0.07542177 0.057964943 -0.009207566 0.0830876 0.028305795 0.0003130112 0.005975389
-0.030175598 -0.14323452 0.107496284 0.028692225 0.09580049 0.0828069 0.01778128 -0.05387166
-0.025145117 0.046403334 0.048401427 -0.1432678 0.0365206 0.11429485 -0.07658577 0.041159824
-0.004482842 -0.11911637 -0.015239602 -0.10076453 0.048720703 -0.084128305 8.281851e-05 0.0035438605
0.07169171 0.11582569 -0.024432696 0.15852962 -0.10701746 0.002985431 -0.033685166 0.031138204
-0.05503702 0.07080141 -0.117130086 0.046563484 -0.03622067 0.038612325 -0.09785217 0.10571351
-0.113507144 -0.08901121 0.033242725 0.024963649 0.016405169 0.12887368 0.058235124 -0.0016129361
-0.014833601 -0.08071095 -0.11843011 -0.11161108 -0.10302943 0.024879497 0.0019064696 -0.05911774
0.07008768 -0.09753804 -0.16130477 0.01015586 -0.040390015 -0.014892171 -0.042786043 -0.043506548
0.03879176 -0.021225993 -0.053278163 -0.08049697 0.029015979 0.031594984 -0.03592348 0.028912865
0.0983344 -0.008176187 -0.017587574 0.017880011 -0.06702768 -0.11808718 0.09556981 -0.031120062
0.034169536 0.03688167 0.030349191 0.008069212 0.10840724 -0.046278417 -0.06863657 -0.13631557
-0.041479968 -0.022640267 0.096102394 0.07526198 -0.029061882 0.04506305

weight f4 [100, 150]
00000000: 4192 573e 64c4 923d 2bfc 1a3d 7d2d 5f3d
00000010: 70c5 7e3d 7c9c 573e 174f 97bd cb56 0e3d
00000020: 8830 cfbc 9b68 eabd 286c 42bd 8e29 a03d
00000030: f464 6bbc 72a2 443d d5b1 62be 8df9 f7bc
00000040: 7900 8c3d 703e f6bb 8692 3abc d9ec bd3c
00000050: f77d af3d 470b 303d 11df 483e 96fd f8bc
00000060: aeb5 9cbd a456 dd3d 6eb8 883d f9d5 8d3d
00000070: 9f8c 853e fcad 80bc 46e7 b43d f811 eabc
00000080: 82f7 803d 753a 683d aa1d aebd d0c0 e139
00000090: f8c9 563d 5ed2 543c 75ed 213b c5f0 71bd
000000a0: f451 833d e639 693e 3bbc dfbd 10a8 353e
000000b0: 4dd2 fcbd 1c12 333d fe70 67bd 8cbf 673e
000000c0: 1891 713e a036 3f3d 6dd3 e2bb 932e 98bc
000000d0: 910f 263d 04dd 88bc 141d 01bc 6994 d0bc
000000e0: a606 083e 2c17 96bc 95fc 6cbd f143 673b
000000f0: 8c7a 8d3e 8a44 cc3c da66 48be ac20 b63c
00000100: adf2 10bd 557c 873e e939 b5bd a2f6 3c3d
00000110: e3d4 f1bd f302 1b3d 4c43 ae3c 0f5e 4dbc
00000120: 00a5 68be 78ed de3d c62a 10bc a90c 5ebc
00000130: 8366 8a3d 7ccd 323e 930b 3a3e 9e6e 733e
00000140: 0d04 293d 0af1 5a3e edf2 d4bb 4a44 99be
00000150: 1a90 a53d 55ed 803e 4f4d 2cbd c8f5 1bbc
00000160: 4d8d 2bbd 8152 6d3e 6ca6 443d 4fff d6bd
00000170: 4442 693d 7bd6 563c 60ca c63b bc89 6a3c
00000180: 0e74 3f3d ddf6 08bd d94b 8ebd 9fe7 653a
00000190: 5552 1e3e 70a4 71bd 0ce9 f53d e142 f73c
000001a0: 39ff 3c3e 8ca4 e2bc 48a5 ec3d 8533 71bd
000001b0: e6c4 6e3d e88e ea3d a7f7 57bd 0375 493e
000001c0: 924c 273e 9857 9fbc c934 85bd c970 123c
000001d0: 6971 f7bc 623e acbd 4e4d 223d 7263 143d
000001e0: f74c 193e 9fb0 08bd a9b6 913e caed 2dbc
000001f0: d0e1 bcbd cf1c 283e 387d a43d 0043 b339
00000200: 5a06 79be f51d 733d 43b4 68bd 8375 2dbd
00000210: d42e 3e3d 49af 73bd ad09 6a3e 636f 41bd
00000220: c981 5f3e 13d9 b13d 87de 37bd e6c4 363e
00000230: acc9 e3ba 0a76 f73d 0040 3bb7 090e 5f3d
00000240: a9d8 adbb b5fe 8a3d 0a10 583e a402 a0bd
00000250: 9627 643d 6343 66be a6ab 79bc b31a a0bd
00000260: b6f1 7fbd 0fec 09bd 302b 9dbb e355 f23c
00000270: d8bb 8a3d 41e0 47bd a48b 753d c273 3f3c
00000280: 291e 9dbd 2e36 db3c 7e73 fe3c 3460 84bd
00000290: b743 d1bd 8dcf e9bd ecb2 393d 602e 18bb
000002a0: 420d e03c 4b86 73bd e071 c2bd 4853 b73b
000002b0: e071 50bd 80af 0cba a988 183d 6a01 a03c
000002c0: 3c75 523d de61 533d 5e79 713d 6f02 5fbd
000002d0: 46c5 3dbd 9227 58bd 80bc 75bc 5a8c b1bd
000002e0: 00a0 943b fb53 d6bd 97f2 4fbd 1409 aabc
000002f0: 6fa3 8abd a00c 5f3d c0e9 c7bb 9c2b 933d
00000300: 9ef1 43bd 023f f4bc 5ff3 3dbd cf35 0c3c
00000310: b147 9cbd c809 a5bc 1a8e fdb9 f7eb 9bbd
00000320: 84cf a3bc caca a4bd 2415 373c 47d4 92bd
00000330: d6a2 9f3d 07a5 03bd a86d 57bd a68a 9b3d
00000340: 6044 d2bd d82e 1cbd 9266 503d 4882 9a3d
00000350: 9b8a ffbb 5853 173d 10c9 993c 2119 823c
00000360: 7c4c 703d 9df7 d93c d41e f93c 054d 86bc
00000370: 80f3 5cbc e711 9fbd f04e 7bbc 7365 d13b
00000380: 79ee 983c 0f4a eb3c 5e45 dabd db3b 95bc
00000390: 7093 4d3d 0475 04bd eaef 343c 25f7 7b3d
000003a0: 001b fd3c 60b5 103c d2a3 62bd 243d c2bb
000003b0: 1edd a4bd 52ab d0bc 00e6 ee3c c8b3 98bd
000003c0: 5a57 8abc ab79 3bbd f2fb 253d 463a 2c3d
000003d0: 3c32 00bd 0bbf 86bd c0ad 74bb 80d0 a63d
000003e0: f709 7dbd 1c3f 573b 99c5 cfbd 1108 d4ba
000003f0: b7d4 233c 8063 2e3d 37fe c23c 8b1c 123d
0.21051885 0.07166365 0.037838142 0.05448674 0.06220001 0.21055788 -0.07388132 0.03475074
-0.025291696 -0.11445733 -0.047466427 0.07820426 -0.014367331 0.048006482 -0.2213815 -0.030270362
0.06836028 -0.0075147673 -0.011387473 0.023184227 0.08568948 0.042979505 0.19616343 -0.030394357
-0.0765184 0.10807541 0.06675802 0.06925578 0.26083848 -0.015707962 0.088331744 -0.028573021
0.06297208 0.056696374 -0.08501752 0.00043059 0.052438706 0.012989609 0.0024708186 -0.059067506
0.06412116 0.22775993 -0.10924574 0.17739892 -0.12344799 0.043718442 -0.056504242 0.22631663
0.23590505 0.046682954 -0.0069221766 -0.018576896 0.04054219 -0.016706951 -0.007880468 -0.025461392
0.13283786 -0.018321596 -0.05785807 0.00352883 0.27632558 0.024935026 -0.19570485 0.022232376
-0.035387684 0.26462045 -0.08848936 0.046133645 -0.11808183 0.03784461 0.021272324 -0.012534632
-0.22719193 0.10885137 -0.0087992605 -0.013552823 0.06757834 0.17461199 0.18168478 0.23772666
0.04126363 0.21381012 -0.0064986856 -0.29934913 0.08084126 0.2518107 -0.042065915 -0.009519048
-0.0418828 0.23176004 0.048010275 -0.10497915 0.05694796 0.01311266 0.0060666054 0.014315065
0.046741538 -0.033438552 -0.069480605 0.0008770171 0.15461095 -0.05899471 0.12007341 0.030183258
0.18456735 -0.027666353 0.115549624 -0.058887023 0.058293246 0.114530385 -0.052726414 0.19673543
0.16337803 -0.019450948 -0.065042086 0.008938023 -0.030205445 -0.08410336 0.039624505 0.03622765
0.14970766 -0.033371564 0.2845967 -0.010615775 -0.09222758 0.1641724 0.08031696 0.0003419146
-0.24318829 0.05935474 -0.056812536 -0.042348396 0.046431378 -0.059493337 0.22855254 -0.047225367
0.21826853 0.08683982 -0.044889953 0.17848548 -0.0017378828 0.12083061 -1.116097e-05 0.054456744
-0.005305369 0.06786863 0.21099868 -0.07813004 0.055701815 -0.22486643 -0.015238678 -0.078175925
-0.062486373 -0.03367239 -0.004796408 0.02958197 0.067741096 -0.04879785 0.059947625 0.011685314
-0.07671768 0.026759233 0.03106093 -0.06463662 -0.10217994 -0.1141654 0.04533665 -0.0023221
0.027350072 -0.059454244 -0.09494376 0.0055946447 -0.05088985 -0.0005366728 0.037239704 0.019531924
0.051381335 0.051607005 0.058953635 -0.05444568 -0.046330713 -0.052772112 -0.014998555 -0.08669348
0.004535675 -0.10465237 -0.05076846 -0.020756282 -0.06769454 0.0544554 -0.006100863 0.07186052
-0.047837846 -0.0298152 -0.046374675 0.008557751 -0.076308616 -0.020146266 -0.00048361794 -0.07613366
-0.019996412 -0.080464914 0.011174474 -0.07169395 0.0779473 -0.032139804 -0.05259481 0.075948045
-0.10266948 -0.03813061 0.05087907 0.075443804 -0.0077985055 0.036944717 0.018772632 0.015881123
0.05866669 0.026607329 0.030410208 -0.016394148 -0.013485789 -0.077670865 -0.015338644 0.0063902675
0.0186684 0.028721837 -0.10657762 -0.018217018 0.050189435 -0.032338157 0.011043528 0.061514992
0.030896664 0.008832306 -0.055332012 -0.0059276987 -0.08049987 -0.025472317 0.029162407 -0.074561656
-0.016887356 -0.04577033 0.040523477 0.04204776 -0.031297907 -0.06579407 -0.0037335008 0.08145237
-0.06177708 0.0032844013 -0.10145111 -0.001617672 0.009999446 0.04257536 0.02380286 0.035671752

bias f4 [100]
00000000: f757 8abd 0ea9 a3bc 8d60 a9bc 84f7 e1bd
00000010: 1474 2b3e 68c9 28bc 4072 703e d432 be3e
00000020: bcf1 433e 0d85 f03c 08e6 8dbd 66f3 913e
00000030: d3ec 99bd c00b 0bbc 9a87 bb3d c545 f0bd
00000040: a1b0 eebd 6571 40be c7ff 85bc 6e4d 1fbd
00000050: b2e4 383d 9554 533e e1ff 093d 17f4 dbbc
00000060: 1656 8b3e 6357 023d 4744 2cbe d02c 7abd
00000070: d389 9dbd 0e53 923d d602 883e 6c13 5d3e
00000080: a405 d13d 7418 b4bd e218 d4bd 8a4f a5bd
00000090: 0c5e 91bd 8f08 823d 2781 9abe 2faa 953c
000000a0: ef57 a2bd 119e 20bd 2c4a 46be f7e4 90bd
000000b0: d74f 4c3e b8be 9cbc c1e9 2bbe 28fa 893e
000000c0: b9a4 1f3d 4b53 923e 59d4 a6bc 5a14 883e
000000d0: 08da c2bd d297 513d e137 913c f663 ad3e
000000e0: f05d 60bd c9f7 b6bd 7bf3 dabc a16e ce3d
000000f0: fc9e 433e 5d56 b13c 20f2 6cbd 90e9 88bd
00000100: 0938 a9bc a845 71bc 557e 25bc bcb3 71bd
00000110: 38fb 1d3d c647 af3e 55b7 90bd 970f bebd
00000120: f3b5 eabb 0b56 36bd 201a 47be bd93 33bd
00000130: a426 9cbd 040b 493d bacd ffbd 05a6 38bd
00000140: 5cfc 853d 6452 ab3c a397 723e 14a5 903c
00000150: 45e8 e0bd 78b6 e3bb 5240 08bd 61a5 d7bd
00000160: 1277 9abc e2a2 0cbd 7936 d8bc b14e 8ebd
00000170: 1b87 c6bc 9278 cdbd 20e1 41bd c3f5 663e
00000180: 2677 b3bd a044 4d3c 9272 f3bd 25b6 92bd
-0.06755059 -0.019978072 -0.020675922 -0.11033538 0.16743499 -0.010301925 0.23481083 0.37148154
0.19135183 0.029360319 -0.069286406 0.2850601 -0.07515874 -0.008486688 0.09156723 -0.117320575
-0.11654783 -0.18793257 -0.016357316 -0.038892202 0.045139976 0.20637734 0.03369129 -0.02684979
0.27214116 0.03182162 -0.1682292 -0.061077893 -0.076923035 0.07144748 0.26564664 0.2158944
0.10206154 -0.087937266 -0.103563085 -0.080718115 -0.07098016 0.06349289 -0.3017666 0.018269626
-0.07926928 -0.039213244 -0.19364232 -0.070749216 0.19952331 -0.01913391 -0.16788389 0.26948667
0.03897545 0.28579172 -0.020364927 0.26578027 -0.095142424 0.051170178 0.01772684 0.33865327
-0.054777086 -0.0893398 -0.026727429 0.100796945 0.19103616 0.021647627 -0.057848096 -0.066851735
-0.020656602 -0.01472608 -0.010100921 -0.0590093 0.03856966 0.34234446 -0.07066218 -0.09280317
-0.0071628033 -0.04451565 -0.1944356 -0.043842066 -0.076245576 0.04908277 -0.12490411 -0.045080204
0.06542274 0.02091331 0.23690657 0.01765684 -0.10981802 -0.006949242 -0.033264466 -0.105295904
-0.018855605 -0.034335025 -0.026393162 -0.06948603 -0.024234345 -0.100327626 -0.047333837 0.22554688
-0.0876296 0.0125285685 -0.11887087 -0.071636476

weight f4 [4, 100]
00000000: 7b16 71bd 28c8 333d fad9 a23d 6ebd 22bb
00000010: 641f fe3d 1456 ce3c 5b92 b83d 80d0 773e
00000020: ef37 0a3e 1037 cfbd bf44 423d 0272 003e
00000030: b3cc a63b 9721 73bd 9ac1 2d3d e179 aabd
00000040: 1f03 a2bd bcbf 463c 7fbd ccbd cc24 70bd
00000050: 1903 b7be e33b 373e 316a 6ebc 797e 1f3d
00000060: e82b 01bf 5515 55bd e8a5 cebc f765 563d
00000070: 1568 5cbe d778 8b3d c4f9 a93e 2ddf 543e
00000080: d0b0 13be dc28 e9bc f40b a0bd af01 b1bd
00000090: 1041 10bd 1317 d33c 6518 27be ff9e 513c
000000a0: 6b29 8abb 8fb1 2bbe 2b77 12be 0b4a e1bc
000000b0: bba1 2d3e c868 5ebd 6124 5bbc c0fd 693e
000000c0: d8fd 953c 3660 873e 53d6 5cba 87aa b23e
000000d0: 0ccb f6bc 4a80 b1bb 5926 443d 17d6 c33e
000000e0: 89f1 bd3c 6103 c6bc 85c2 5c3d 11f7 2dbf
000000f0: 1d73 26bf acd5 063b 6823 43bc 4986 943d
00000100: b691 733d 2993 16bd 4907 44bd 82eb c7bc
00000110: e291 ac3d a9cb c93e 5049 8a3d 1632 18bd
00000120: dda6 02bd df3c 2cbb f2d5 97be 2e98 a0bc
00000130: ae11 64bc 6734 b4be 9108 2a3e c55a f23c
00000140: 0f26 2f3e df22 4a3c f6ea 293e 6df4 ebbb
00000150: 1850 c03c ee7a 533c 87da 86bd 2c3a e1bc
00000160: 46a8 9cbc 16f5 acbd 6051 59be e064 5ebd
00000170: 2635 1bbd 1096 49bc c625 a5bc 1313 87bd
00000180: 303c dd3b 950e 71bc b13c 3fbc 4d29 503c
00000190: 58d3 353d b587 a23d 2e44 58bd e753 5fbc
000001a0: 3789 9b3e bb39 c13d 2600 473d dd09 7b3e
000001b0: f578 803c acc0 d3bd 3c12 473d 4e49 9f3e
000001c0: fd52 803d 23bd fa3c d376 163d a983 f63d
000001d0: 71bf aebd 30e5 f7bd 5f96 173e 8474 d5bd
000001e0: 700d 45be 9ac9 ca3c 7545 20be 219a 6f3c
000001f0: 194b 07be f066 8a3c cd82 e8bd eadf 1abe
00000200: a7c6 7c3e a4ef cc3d 11db 143e 76ee 073f
00000210: cabf 6ebe 9ee1 5d3d d9f8 82bc cba9 88bd
00000220: 5c85 81bd 51ca 013e 2767 f53d 20a6 783d
00000230: 4a31 b4bd 1737 7d3e 5a4e c8be 12b6 3f3d
00000240: 2697 c23d 6871 09bc 6aa9 85bc dc00 103e
00000250: df40 c23c b393 b7be 1126 543c 0fe0 933e
00000260: df44 2c3c 36c0 3f3d abe9 a53d e33d 683d
00000270: 8e2e 2b3d dbcf 8dbd f6a9 fe3d 22a1 08be
00000280: 8e93 0ebd b2cb 003d e009 fb3b 5aec 02bd
00000290: bb38 493e e085 b6bc d410 483d 7144 b0bb
000002a0: 1881 05bd 8e1e a73e 8f45 ce3d 489d 9f3c
000002b0: 8736 78bd 468f c0bd b4e1 a3be 145d 3cbd
000002c0: db08 9a3d 8c79 a9be 25b7 843b 9f97 a33a
000002d0: 3578 f33d d9d4 e8bc b4bd 713d 5196 a5bd
000002e0: 9881 ec3d bd7d 2f3d ab75 4c3d b6fc 913b
000002f0: c31d 853d a530 ca3d 03bd f23b f62c 3fbc
00000300: 1a1f 2b3d e315 abbd 0896 70bc da69 0e3d
00000310: 345e f23c ad5e 72bc 1e61 b3bd 41b9 d5bd
00000320: 93ca 74be ddc9 3f3d 82da 23bd c9be 94bd
00000330: 79db bc3d ecc7 6dbe c2f2 033e 45e1 8d3e
00000340: d0a4 a3bd fccd 82be cf60 913b b973 a83e
00000350: e8bf 8cbc 12b3 9abd 4fa2 263e 20af 54be
00000360: 8242 773d 6ed9 77bd f748 88be c2b6 5dbe
00000370: e601 e23d cc1a 80bd b505 4abe 9afe 343c
00000380: 2b36 2f3e 95b9 973d e9ed 823c 2523 3cbe
00000390: 6a66 97bd 2006 32be 6b3c 7b3e c17e 7e3e
000003a0: 44c7 a13d cffc ad3d 683c a43d df9b 473c
000003b0: 268c 6d3d 7d5e 65be 8df0 183d 5ffa 05bb
000003c0: 2da6 27bd d757 3bbe e87b 0d3e 6263 f33c
000003d0: 05e3 a0bd e50d 403d 4b76 93bd 097e 8abd
000003e0: 81ca 233d dc3f 3a3e 9dd7 a63d 059b 893e
000003f0: 39df 40be d8ca 4cbe d085 3cbd f833 d03e
-0.05885933 0.043892056 0.07951732 -0.0024832147 0.12408331 0.02518753 0.0901229 0.2420063
0.134979 -0.10117924 0.047428843 0.1254349 0.00509032 -0.059358206 0.04242096 -0.08324028
-0.079107516 0.012130674 -0.09997081 -0.058628842 -0.3574455 0.17893939 -0.014551685 0.038938973
-0.5045762 -0.052022297 -0.025225595 0.052343335 -0.21524079 0.06810158 0.3319837 0.2078826
-0.14422917 -0.028461866 -0.0781478 -0.08642899 -0.0352183 0.025767839 -0.163179 0.012794255
-0.004216363 -0.16766952 -0.14303271 -0.027501127 0.16956227 -0.054299146 -0.013375373 0.22850704
0.018309519 0.2644059 -0.0008424271 0.34895727 -0.030126117 -0.0054169046 0.047888134 0.38249275
0.023186462 -0.024171533 0.053896446 -0.6795512 -0.650194 0.0020574136 -0.011910297 0.07252175
0.059465133 -0.036761437 -0.04785851 -0.024404291 0.084262624 0.39413193 0.067522645 -0.03715714
-0.031897414 -0.00262814 -0.29655415 -0.019603815 -0.013920231 -0.3519623 0.1660483 0.029584298
0.17104362 0.0123374155 0.16593537 -0.0072007687 0.023475692 0.012907727 -0.065846495 -0.027493559
-0.019123208 -0.08445184 -0.21222448 -0.05429542 -0.037892483 -0.012303844 -0.020159613 -0.06595435
0.0067515597 -0.014712949 -0.011672185 0.012705159 0.044391006 0.0793604 -0.052799396 -0.013630844
0.30378124 0.09434839 0.048584126 0.24515481 0.015682677 -0.103394836 0.048601374 0.31110615
0.06265829 0.030607766 0.036734413 0.12036831 -0.08532608 -0.12104261 0.14803456 -0.10422614
-0.19243407 0.024754334 -0.15651496 0.01462415 -0.13212241 0.016894788 -0.11353073 -0.15124479
0.24685155 0.10006645 0.14536692 0.5309824 -0.23315349 0.054170243 -0.0159878 -0.066730104
-0.063242644 0.12674834 0.119825654 0.060705304 -0.08798464 0.24728046 -0.39122277 0.046804495
0.095014855 -0.008388855 -0.016316134 0.14062828 0.023712574 -0.35854873 0.012948529 0.2888188
0.010514467 0.046814166 0.08101209 0.056699645 0.041792445 -0.06924411 0.12434761 -0.13342717
-0.034808688 0.03144426 0.0076610893 -0.031963684 0.19650547 -0.022280633 0.048844174 -0.0053792526
-0.032593817 0.326405 0.10071861 0.019484177 -0.060598876 -0.09402327 -0.32008135 -0.045987204
0.0752122 -0.33100545 0.004050153 0.00124811 0.11888162 -0.028421806 0.059018806 -0.08085311
0.115481555 0.042844523 0.049916904 0.0044551743 0.06499817 0.098725595 0.007407786 -0.011668434
0.041777708 -0.08353784 -0.014684208 0.034768917 0.029585935 -0.01479308 -0.08758758 -0.10435725
-0.23905401 0.04682337 -0.040003307 -0.07262952 0.092215486 -0.23220795 0.12885574 0.2771093
-0.0799042 -0.2554778 0.0044365893 0.3290079 -0.017181352 -0.07553686 0.16272853 -0.2076993
0.06036616 -0.06051009 -0.26618168 -0.21651748 0.11035518 -0.06255111 -0.1972874 0.01104703
0.17110507 0.07408444 0.015982585 -0.18372782 -0.07392581 -0.17385149 0.24534766 0.2485304
0.07899335 0.08495485 0.08019334 0.012183159 0.057994984 -0.22399326 0.037338782 -0.0020443422
-0.040929962 -0.18295227 0.13816798 0.029710475 -0.078558005 0.04688825 -0.07200297 -0.067623205
0.039988045 0.18188423 0.08146594 0.26876083 -0.18835153 -0.19999254 -0.04602605 0.4066465

bias f4 [4]
00000000: 95e2 cd3e 43b0 ae3d 1d66 c9bd 53d3 02be
0.4021193 0.08529713 -0.0983393 -0.12775926
